…
 Layer (type)                   Output Shape         Param #     Connected to                     
==================================================================================================
 pos_enc_main (InputLayer)      [(None, 64, 64, 4)]  0           []                               
                                                                                                  
 input_images (InputLayer)      [(None, 64, 64, 1)]  0           []                               
                                                                                                  
 emb1 (Dense)                   (None, 64, 64, 1)    5           ['pos_enc_main[0][0]']           
                                                                                                  
 add (Add)                      (None, 64, 64, 1)    0           ['input_images[0][0]',           
                                                                  'emb1[0][0]']                   
                                                                                                  
 convd1_1 (Conv2D)              (None, 64, 64, 4)    36          ['add[0][0]']                    
                                                                                                  
 normd1_1 (BatchNormalization)  (None, 64, 64, 4)    16          ['convd1_1[0][0]']               
                                                                                                  
 relu_1 (ReLU)                  (None, 64, 64, 4)    0           ['normd1_1[0][0]']               
                                                                                                  
 convd1_2 (Conv2D)              (None, 64, 64, 4)    144         ['relu_1[0][0]']                 
                                                                                                  
 normd1_2 (BatchNormalization)  (None, 64, 64, 4)    16          ['convd1_2[0][0]']               
                                                                                                  
 relu_2 (ReLU)                  (None, 64, 64, 4)    0           ['normd1_2[0][0]']               
                                                                                                  
 pool3 (Conv2D)                 (None, 32, 32, 4)    144         ['relu_2[0][0]']                 
                                                                                                  
 normb1_1 (BatchNormalization)  (None, 32, 32, 4)    16          ['pool3[0][0]']                  
                                                                                                  
 pos_enc_bottleneck (InputLayer  [(None, 32, 32, 4)]  0          []                               
 )                                                                                                
                                                                                                  
 relu_3 (ReLU)                  (None, 32, 32, 4)    0           ['normb1_1[0][0]']               
                                                                                                  
 emb4 (Dense)                   (None, 32, 32, 4)    20          ['pos_enc_bottleneck[0][0]']     
                                                                                                  
 add_1 (Add)                    (None, 32, 32, 4)    0           ['relu_3[0][0]',                 
                                                                  'emb4[0][0]']                   
                                                                                                  
 convb1_1 (Conv2D)              (None, 32, 32, 8)    288         ['add_1[0][0]']                  
                                                                                                  
 normb1_2 (BatchNormalization)  (None, 32, 32, 8)    32          ['convb1_1[0][0]']               
                                                                                                  
 relu_4 (ReLU)                  (None, 32, 32, 8)    0           ['normb1_2[0][0]']               
                                                                                                  
 convb1_2 (Conv2D)              (None, 32, 32, 8)    576         ['relu_4[0][0]']                 
                                                                                                  
 normb1_3 (BatchNormalization)  (None, 32, 32, 8)    32          ['convb1_2[0][0]']               
                                                                                                  
 relu_5 (ReLU)                  (None, 32, 32, 8)    0           ['normb1_3[0][0]']               
                                                                                                  
 up1 (UpSampling2D)             (None, 64, 64, 8)    0           ['relu_5[0][0]']                 
                                                                                                  
 convu1_1 (Conv2D)              (None, 64, 64, 4)    292         ['up1[0][0]']                    
                                                                                                  
 normu1_1 (BatchNormalization)  (None, 64, 64, 4)    16          ['convu1_1[0][0]']               
                                                                                                  
 relu_6 (ReLU)                  (None, 64, 64, 4)    0           ['normu1_1[0][0]']               
                                                                                                  
 emb5 (Dense)                   (None, 64, 64, 4)    20          ['pos_enc_main[0][0]']           
                                                                                                  
 add_2 (Add)                    (None, 64, 64, 4)    0           ['relu_6[0][0]',                 
                                                                  'emb5[0][0]']                   
                                                                                                  
 convu1_2 (Conv2D)              (None, 64, 64, 4)    144         ['add_2[0][0]']                  
                                                                                                  
 normu1_2 (BatchNormalization)  (None, 64, 64, 4)    16          ['convu1_2[0][0]']               
                                                                                                  
 relu_7 (ReLU)                  (None, 64, 64, 4)    0           ['normu1_2[0][0]']               
                                                                                                  
 convu1_3 (Conv2D)              (None, 64, 64, 4)    144         ['relu_7[0][0]']                 
                                                                                                  
 normu1_3 (BatchNormalization)  (None, 64, 64, 4)    16          ['convu1_3[0][0]']               
                                                                                                  
 relu_8 (ReLU)                  (None, 64, 64, 4)    0           ['normu1_3[0][0]']               
                                                                                                  
 out (Conv2D)                   (None, 64, 64, 1)    5           ['relu_8[0][0]']                 
                                                                                                  
 relu_9 (ReLU)                  (None, 64, 64, 1)    0           ['out[0][0]']                    
                                                                                                  
==================================================================================================
Total params: 1,978
Trainable params: 1,898
Non-trainable params: 80
__________________________________________________________________________________________________
…
